best_policy.model (torch, 481775 bytes, 15 tensors)

conv1.weight f4 [32, 4, 3, 3]
000000 4d 0c 9c 3d bd 50 70 bd 98 68 56 3e 33 c3 06 3e
       0.07619534 -0.058670748 0.20938337 0.131604
000010 9b 48 1d 3e f0 43 0c 3d 08 14 72 be 11 ef 0a 3e
       0.15359728 0.034244478 -0.23640454 0.13567759
000020 88 e9 51 be 33 37 8b bd 9c ec 3c 3d 3f 2d fa 3c
       -0.20499241 -0.06797638 0.046124086 0.030539153
000030 15 83 26 3d 40 f1 bf 3e 73 0f 44 3e 3b 6f 70 3e
       0.040652353 0.37488747 0.19146518 0.23479931
000040 cc b1 1e be 30 79 2c 3e 55 23 2b 3d 23 ee 2b be
       -0.15497512 0.16843104 0.041781742 -0.1679006
000050 1d 6f 3b bc 55 d6 2c 3d cd 1f 37 bd 1b 25 45 be
       -0.011440066 0.04219659 -0.044708062 -0.19252436
000060 e5 7a fd 3d d9 7f e1 bc 1a 11 10 be 1f 93 18 be
       0.12376956 -0.027526783 -0.14069024 -0.14899872
000070 6a eb b4 bc cc c5 da bd 37 65 7a 3d ae 2b fc 3d
       -0.02208491 -0.10682258 0.061131682 0.12313019
000080 e2 ed 54 3d 53 f8 5b 3d 26 5f e4 bd e8 96 05 be
       0.051984675 0.053703617 -0.111509606 -0.13045847
000090 20 8c a6 bc c1 a7 df 3d b3 6d 15 3d 43 c8 81 be
       -0.020330489 0.109206684 0.03648157 -0.253481
0000a0 d7 dc c5 be a0 db a0 bd 2b 9b 84 3d 2e 81 6b be
       -0.3864505 -0.0785439 0.064749084 -0.22998497
0000b0 a2 d5 00 be 72 2a d5 bd f9 98 80 bc e4 6e 20 3e
       -0.12581494 -0.104084864 -0.015697943 0.15667301
0000c0 51 6d a1 3d ec 0a 42 3e a6 1a f9 bd 12 24 7f 3d
       0.078821786 0.18949479 -0.12163286 0.06229026
0000d0 13 b1 54 be 7e 2a 80 bd d3 df 8f 3d 52 63 f3 bd
       -0.20770673 -0.06258105 0.07025113 -0.11884178
0000e0 81 6e 36 3c 0e 1e e9 3c 94 17 05 bd d6 ad 77 3d
       0.011134745 0.028456714 -0.03249319 0.060468517
0000f0 0f 7f 09 3e cc 70 a5 3c 5a a7 c5 3d 4f bb 18 3e
       0.13427375 0.020195387 0.096510604 0.14915203
000100 0b 13 22 3e 25 a8 e8 bd c7 9c 04 3d e2 9b 80 bd
       0.15827577 -0.11360196 0.032376077 -0.06279732
000110 e0 20 c6 3d 79 4e 11 be e7 39 20 3c d5 6e 29 bd
       0.09674239 -0.14190091 0.00977943 -0.041365463
000120 3e ed 22 3e c0 50 4e 3d 1f f5 41 bc 2a c8 20 3d
       0.15910813 0.050369978 -0.011838227 0.03925339
000130 15 e9 8f 3d e1 1e 0b 3e d0 c7 22 3e 0c cb aa 3d
       0.07026879 0.13585998 0.15896535 0.08339509
000140 52 1e 52 3d 43 22 dd 3c 0c 90 fa 3d d2 e8 5a bd
       0.051298447 0.026993876 0.12234506 -0.05344469
000150 3f 3d 24 3e 65 62 a8 b8 d8 37 58 3e bb 31 5c 3d
       0.16038989 -8.029192e-05 0.21115053 0.053758364
000160 a1 de 0c be 5b 4b 10 3e f2 c7 eb bd 31 8f 07 bd
       -0.13756801 0.14091246 -0.11512746 -0.033095542
000170 49 52 13 3d c4 97 c3 3c 8d 60 9f 3c c5 13 8f 3c
       0.035967145 0.023876078 0.019455219 0.017465482
000180 7f 92 07 3d 16 29 c9 ba e3 3f ac bd 47 8a c2 3d
       0.033098694 -0.0015347328 -0.08410623 0.094990306
000190 bc 6a ed bc 43 1f 21 3d e4 5d 02 3e b7 22 f9 bd
       -0.028981559 0.039336454 0.12731129 -0.121648245
0001a0 28 da d2 3d d7 22 03 3e 1b 34 10 3d 0a 74 a3 bc
       0.10295516 0.12806259 0.03520594 -0.019952793
0001b0 0c 9f 27 bb 03 19 89 be 8d 99 08 be ee 23 07 3e
       -0.0025576977 -0.26776895 -0.13339825 0.131973
0001c0 a2 51 0c be 00 78 c3 bd a4 7c 83 3e d3 97 18 be
       -0.13703015 -0.095443726 0.2568103 -0.14901666
0001d0 43 24 08 3c cf 39 d1 bb 47 ae 0b bd 59 d5 09 be
       0.008309427 -0.006385065 -0.03410175 -0.13460292
0001e0 9f 0e 5d bd 65 4f fd bd c2 db 4a bd 57 3e 01 be
       -0.053969022 -0.12368659 -0.049525984 -0.12621437
0001f0 51 43 88 be 5f f6 04 3e c2 f1 92 bc 3e 54 a6 3d
       -0.26613858 0.12984608 -0.017937545 0.08121537
000200 98 22 19 3e 0f c1 68 bb 90 58 34 bd 48 03 03 bd
       0.14954603 -0.0035515463 -0.044029772 -0.03198555
000210 fb 60 29 bd 0e 8a 82 3c fb a7 c8 3c fc 8a 2d 3e
       -0.041352253 0.01593497 0.024494162 0.1694755
000220 bd 1d b6 3d 40 3d ff bc 33 a1 12 3e 0f b3 b5 bd
       0.08892391 -0.031157136 0.14319305 -0.08872043
000230 7b 84 3d 3e bf d4 fc bd ce 14 74 bd df 44 dd bd
       0.18507569 -0.123452656 -0.059590153 -0.10804152
000240 04 3c 2c be 6d 14 de 3d 03 c4 e5 3d 2e a3 9d be
       -0.16819769 0.1084374 0.11219027 -0.3078856
000250 56 c0 03 3e 72 61 05 be 82 45 3b be 1c 16 a3 be
       0.12866339 -0.13025454 -0.18288234 -0.31852806
000260 dd 1e 27 3c e0 0b a5 3e e2 28 25 3e 7c 22 cd 3d
       0.0102002295 0.32235622 0.16128877 0.10016343
000270 a2 49 cd bd d2 f8 db 3d b9 23 4b 3d b4 48 4e bd
       -0.1002381 0.10740818 0.049594615 -0.050362304
000280 bc 3b 3b be 80 43 00 be 0b 75 10 3c 57 87 22 bc
       -0.18284506 -0.12525749 0.008816968 -0.009919963
000290 30 6e 8b 3c cb 33 1f 3d 85 a1 b4 bc cb 1d 30 3d
       0.017020315 0.038867753 -0.022049675 0.042997163
0002a0 48 38 ac 3d df 23 96 3d d0 e8 26 bd 23 b7 17 bc
       0.08409172 0.073310606 -0.04074937 -0.009259972
0002b0 98 99 b7 bd 6c b4 32 3e 0a fb 5d bd 9a df f2 bd
       -0.089648426 0.17451638 -0.054194488 -0.11859055
0002c0 cc f2 06 3e 2b 30 c8 3c fa 5a 2b 3e 34 e4 ad 3d
       0.13178557 0.02443703 0.16733924 0.08490792
0002d0 88 79 bf 3d ac df ee bd 0f 85 1b 3d 89 8b 5d 3e
       0.09349352 -0.11663756 0.03796869 0.2163526
0002e0 f7 aa 03 bb 4d e2 ca 3d 45 bb 21 be 0c d3 c3 bd
       -0.0020090917 0.09906445 -0.15794094 -0.09561738
0002f0 dd 4d 46 3e 71 8e 1c 3e f8 b7 7e be 0a 43 fd bd
       0.1936564 0.15288712 -0.24874866 -0.12366302
000300 03 51 11 3e b3 e4 f5 bd 90 65 f8 3d 4e b4 2a be
       0.1419106 -0.120065115 0.121287465 -0.16670343
000310 80 fd a0 3d 18 f3 08 3e 56 5f ef 3d 45 5c 70 3d
       0.07860851 0.13373983 0.11688106 0.058681745
000320 a4 47 5f 3d 29 84 8f bd aa 2a c7 3c 98 54 6b bd
       0.05451168 -0.070076294 0.024312336 -0.05745372
000330 42 60 8e 3d 41 24 ce bd ad 7c f8 bc 9f 11 1f be
       0.069519535 -0.10065509 -0.030332888 -0.15534066
000340 a3 9d 0d 3e ec 5f 2a be 77 c8 9f 3d ae cc 2b be
       0.13829665 -0.16638154 0.078019075 -0.16777298
000350 36 b4 30 be 45 5a 6a 3d 6e 91 ec 3d b0 a2 3e be
       -0.17256245 0.057214994 0.11551176 -0.18616748
000360 7b cf a0 3d 7c 04 75 3d 8d d2 ca bb 0e 9c f0 3c
       0.07852074 0.05981873 -0.0061896504 0.029371288
000370 c3 bc 11 3e b0 5a 54 be f0 39 3f 3e 93 59 32 bd
       0.14232163 -0.2073772 0.18674445 -0.043542456
000380 e3 a7 16 be 28 ca 29 3d c6 ca 4e 3b d4 76 a6 3e
       -0.14712481 0.041452557 0.0031553968 0.32512534
000390 33 06 11 be 6b bb 7f 3d 58 da fc bc f4 bf 51 be
       -0.14162521 0.062434595 -0.030865833 -0.2048338
0003a0 3d 87 24 3c f1 a2 5c be cd eb 18 be ce 29 8e 3e
       0.010042009 -0.21546532 -0.14933701 0.2776627
0003b0 e2 6e 3b 3e 08 6b b3 3c ad ea 89 3d 49 20 af bd
       0.18304017 0.021901622 0.06734214 -0.0855108
0003c0 98 f1 a6 bd 18 7b 8e bc d6 14 c8 bd 3b 9b ae bd
       -0.08151549 -0.01739268 -0.09769599 -0.085257016
0003d0 46 37 1c 3e 97 fa 6c bd bb c9 c3 3d 63 e2 cc bd
       0.1525546 -0.05785617 0.095599614 -0.10004117
0003e0 15 04 b1 3d 9a 69 ec 3d be ea 1b 3c f1 f4 6c 3d
       0.08643357 0.115435794 0.009516416 0.05785078
0003f0 f2 ac cb 3d a7 33 32 be dc 3c 34 be 0d 79 cc 3d
       0.09945096 -0.17402516 -0.17601341 0.09984026

conv1.bias f4 [32]
000000 f9 4f ca bc 87 03 e4 3c 2e 54 de bd fc 75 b5 bd
       -0.024696337 0.027833713 -0.108559 -0.08860394
000010 fd 99 0f 3c 44 73 f6 3d 25 5b 91 3d 2e 95 c2 3c
       0.008764741 0.12033704 0.070974626 0.023752775
000020 ad 58 87 bd 0e 58 4c bd 7f 9c d5 3d de 5b 8a bd
       -0.066087104 -0.049888663 0.1043024 -0.067558035
000030 8e 5d 5c 3d f7 a0 69 bd db 2e cd bd e2 41 1b be
       0.05380016 -0.057038274 -0.100187026 -0.15161851
000040 62 56 8e 3d f6 80 39 3c 27 e8 cf 3d 15 29 1a be
       0.0695007 0.011322251 0.101517014 -0.15054734
000050 6c 0c 0d 3e c2 a5 b6 bd 69 a4 2d 3d 21 62 fe bc
       0.1377427 -0.089183345 0.042393122 -0.03105265
000060 44 cc e7 3d 25 b8 ac bd bc ad 17 be e9 ca 62 bc
       0.113182575 -0.0843356 -0.14812368 -0.013842323
000070 a7 7e 2c 3d 1d 1e 8d 3d 53 4c 27 3e 99 4d fd 3d
       0.042112973 0.06890509 0.16337709 0.12368316

conv2.weight f4 [64, 32, 3, 3]
000000 5e 1d 30 bc db 7f 90 3d 64 d3 e0 3d 5f d6 4a 3b
       -0.010749189 0.070556365 0.109778196 0.003095053
000010 10 ed e1 3d b5 6b b6 3c 0f c1 94 bc c5 e4 89 bd
       0.11031544 0.022268156 -0.018158464 -0.067330875
000020 ca 9e f0 3d a5 6c 9d 3c d1 7a 38 3d 1d ca 9a 3d
       0.117490366 0.019216845 0.045039 0.07558081
000030 bb 41 11 3d 59 e5 b7 3b 87 83 53 bd 42 65 26 3d
       0.035463076 0.005612057 -0.051639106 0.04062391
000040 b7 1c 07 3d 06 1b 7a bd 5d fd 16 bc 43 4b 4c bd
       0.03298637 -0.061060928 -0.00921568 -0.049876463
000050 a9 e4 54 3c ea 72 31 3d 00 20 7d 3d 46 4d 81 3d
       0.01299397 0.04332248 0.061798096 0.06313567
000060 a4 c0 ad 3d bc e2 c8 3d 5a 64 96 3d 9a 35 8e 3b
       0.08484009 0.09808871 0.07343359 0.004339886
000070 50 7d 9e bb fc d9 0a bc 24 ba c4 bd 36 3f 93 3d
       -0.0048367158 -0.008474823 -0.09605816 0.07189791
000080 90 d6 0e bd 44 35 2b 3c bc c7 e4 bd 6a 27 1b be
       -0.03487259 0.010449711 -0.11170909 -0.15151754
000090 f2 f2 1b bc b7 82 55 3b f3 df 9a bc 6a 41 61 3d
       -0.009518372 0.0032579133 -0.018905615 0.054994024
0000a0 32 a9 86 bc 67 ee 8d bc 9d 61 af bc fa 0c 30 3e
       -0.0164381 -0.017325593 -0.02140885 0.1719245
0000b0 d8 46 11 3e 86 f4 10 bd 92 67 3b 3d 03 fe 3d 3d
       0.14187181 -0.035389446 0.04575307 0.046384823
0000c0 e7 68 85 3c cc b5 c8 bd e3 53 b7 bc 3d 0e 0c bd
       0.016285373 -0.098003 -0.022378867 -0.034193266
0000d0 c9 2a 48 3d b6 e7 85 3d a1 fa 8a bd 60 ab df 3c
       0.048868928 0.06538336 -0.06786085 0.027303398
0000e0 bf 04 f3 3c d4 79 5e bc 1b 85 dd bc 70 14 4a bc
       0.029665349 -0.013578851 -0.027041009 -0.012333974
0000f0 e4 24 d8 3d f7 00 af 3c 41 0a 5b 3c 2c 5e 50 bd
       0.10553911 0.021362765 0.013369144 -0.05087106
000100 0c 20 91 3d 93 9e 77 3d 1e da 1e 3e 0e 31 d4 3c
       0.070861906 0.060453963 0.15512893 0.025902297
000110 2d 24 8d 3d bb 07 0a bc e7 72 f6 3a 19 c3 2f 3e
       0.068916656 -0.008424695 0.0018802554 0.17164268
000120 6b e6 f4 bc ff 82 59 bd 29 1f aa bc 63 52 72 bb
       -0.029895028 -0.053103443 -0.020766811 -0.0036975376
000130 cb fa 26 bd 70 50 cc 3d b5 04 cb 3d de 34 f5 3c
       -0.04076652 0.0997628 0.09913007 0.029932436
000140 ca f6 b4 3d cf 63 9e bc 06 bd 96 bd 98 fb a1 bc
       0.08836134 -0.019334702 -0.07360272 -0.01977329
000150 99 97 66 bd c3 38 8a bd 43 2e 87 bd 5b e9 31 bb
       -0.05629692 -0.06749108 -0.066006206 -0.0027147147
000160 56 49 a9 3b 78 e2 90 3d b1 bf ac 3d 21 c7 46 bc
       0.005166213 0.070744455 0.08435 -0.012132437
000170 04 76 d2 3d 56 59 86 bb 4e 6c 4c 3d 8f a6 d4 3d
       0.10276416 -0.004100005 0.049907975 0.10383331
000180 f5 61 fc bc e9 03 db 3c bb aa a6 bd 8d 54 d9 3d
       -0.030808428 0.026735263 -0.08138033 0.1061183
000190 28 0d 2b bd 5c 15 3a bc a4 18 86 3d 16 b0 4a 3d
       -0.041760594 -0.0113576315 0.065476686 0.049484335
0001a0 97 a5 09 3d cf bd 46 3c 4e e7 55 bd b1 46 c3 bd
       0.033605184 0.012130215 -0.052222542 -0.09534968
0001b0 2d 7f 57 3c 1e a8 01 bd d9 66 4f bd e4 3b 6f bd
       0.01315288 -0.03165447 -0.050635193 -0.058406726
0001c0 26 e8 31 3d e5 69 c9 bc 9f be 25 3d cd de 93 3d
       0.043434285 -0.024586627 0.040464994 0.0722023
0001d0 f4 69 fd 3c 92 8c 84 3d d2 d2 1d 3d 54 65 dc 3d
       0.030934311 0.06472124 0.038531132 0.10761514
0001e0 05 b1 11 bd 89 8b 33 3e d2 ff 1b 3e f2 23 cf 3d
       -0.03556921 0.17533697 0.15234306 0.10114278
0001f0 b7 57 f4 3c 3d 33 84 3c 2d 0e 4b 3d 13 d3 e7 3d
       0.029826982 0.016137714 0.049574066 0.11319556
000200 8e 0b 19 3e 51 e4 a3 bc f2 b2 d2 3d e0 4a 94 3d
       0.14945814 -0.02000633 0.10288037 0.07240844
000210 d0 b2 72 bc 5f 89 4a 3c 60 40 77 3d 64 9d 71 bd
       -0.01481314 0.012361853 0.060364127 -0.05898799
000220 c4 54 05 bd 32 1e 91 bd 7c fb dc bd ec bd b3 bc
       -0.032551542 -0.070858374 -0.10790154 -0.021941148
000230 4e 3b c1 bc ba aa fc bc bb b6 35 3d e3 66 76 3d
       -0.023587849 -0.030843128 0.04436372 0.060156714
000240 4b ef 25 bd fe 98 5e 3d 89 4d 7f bd cf 1b d8 3b
       -0.04051141 0.054345123 -0.062329803 0.006595112
000250 01 49 b5 bc 37 e0 b2 ba 7e 1d a2 3c 5e 0a 08 bc
       -0.022129538 -0.0013647143 0.019789454 -0.008303253
000260 72 ca 78 3d 69 25 27 bd 5a da a3 bc 47 8e fa 3b
       0.060739942 -0.04080716 -0.02000158 0.0076463553
000270 bf 82 f9 bd e1 01 d1 bb bb f7 46 bd f9 cf 3a bc
       -0.12183141 -0.006378398 -0.048576098 -0.011402124
000280 68 fd de 3a 83 fb d9 bb 85 33 21 bc b8 33 17 3c
       0.0017012777 -0.006652297 -0.009838943 0.009228639
000290 7c 33 79 3d 97 39 a8 bc eb 67 3e 3d 99 2b 0a bd
       0.060840115 -0.020535273 0.046485823 -0.033732984
0002a0 22 a8 36 3c aa e1 c0 bc be e2 0b 3c bd 84 53 bc
       0.011148484 -0.023545105 0.008537946 -0.012910065
0002b0 40 2b 97 bd 5b 90 59 3c 4e 2c 5b bc f5 fc 90 b9
       -0.07381296 0.013279046 -0.013377262 -0.00027654288
0002c0 7a f9 50 3d f1 6e 56 3d b9 43 1b 3c 9b 01 02 3d
       0.05101917 0.052351896 0.009476596 0.031739812
0002d0 e2 06 50 bd 31 e6 e9 bc 67 c6 1a bd 1b e3 6b bd
       -0.050787814 -0.028552147 -0.037786867 -0.05758963
0002e0 86 51 01 bd bd 1d 57 3d 3f 73 a9 3c 93 51 5f bd
       -0.031571887 0.052518595 0.020684836 -0.054521155
0002f0 9f d6 e8 3b ef d1 0f 3e 2d 5c c1 3c 5e f2 f4 3d
       0.007105663 0.14044927 0.023603523 0.1196029
000300 ee 78 81 3d fa c8 75 3d 3a 95 01 3e ed 72 1d 3d
       0.06321894 0.06000612 0.12654582 0.03843968
000310 a9 84 5d 3b cd 03 cf 3c e6 e2 4c bc c0 1a 4b bd
       0.0033800995 0.025270367 -0.012505269 -0.049586058
000320 ba 8d 64 bd 2d 93 e9 bc 62 c1 6a bd 7e 49 6f 3c
       -0.055799223 -0.028512562 -0.05731333 0.014604924
000330 aa 6b db 3b c0 d1 81 bd d9 22 36 3d 58 c5 7b 3d
       0.006696184 -0.06338835 0.044466827 0.0614675
000340 29 fb 16 3b fd 6e 8e 3c 55 67 ca 3c d7 40 3f bd
       0.0023037887 0.017386908 0.024707476 -0.046692695
000350 6c 6f 7c 3c d4 6c 1e 3d 3d 06 8e 3d a0 9f bb 3c
       0.015407424 0.038678005 0.069347836 0.022903264
000360 51 fa 8e bd bc 1c e2 bd 4d f4 d4 3c b1 4e 8a 3d
       -0.06981338 -0.11040637 0.025995398 0.067532904
000370 2d c3 ab 3c 47 7d e2 3c 87 5c b8 3d a7 19 a1 3d
       0.02096709 0.027647628 0.09002023 0.07866221
000380 00 44 0c 3e 4b 2b af 3c 77 27 06 bd 6f f6 93 bc
       0.13697815 0.021382948 -0.03275248 -0.018061845
000390 79 61 29 bd e2 11 af 3d 41 a6 f3 bd 0d 03 1d be
       -0.041352723 0.08548333 -0.11896945 -0.15333195
0003a0 fb d7 ae 3d fe de 58 3d c0 ee a5 3c d3 c8 a3 3d
       0.08537289 0.052947037 0.020255446 0.079972886
0003b0 4f 34 a8 bc 62 d1 05 3d da fc d7 3d ce 6e ec 3d
       -0.020532755 0.032670386 0.105462745 0.11544572
0003c0 fe 2c 26 bd cb d3 67 3d 7a ba b8 3d 02 67 a5 3d
       -0.04057025 0.056598466 0.090199426 0.08076288
0003d0 43 ba 15 3c 23 83 c4 3d 71 45 c2 3d 66 29 f5 3d
       0.009138647 0.09595325 0.09485901 0.11970787
0003e0 e6 ee aa 3d d4 3b 11 3e 40 eb f1 3d fd 11 94 3d
       0.083463475 0.14182979 0.118124485 0.072299935
0003f0 4e 88 18 3c 50 a3 1b 3d 6e d7 ee 3d 2b 9d c2 bb
       0.009309841 0.037997544 0.11662184 -0.005939146

conv2.bias f4 [64]
000000 ca e2 64 bb a4 4b c5 bc b5 62 6a bc f1 51 58 3d
       -0.0034925216 -0.02408392 -0.01430576 0.05281252
000010 40 14 29 bd 2e ce 18 3d b1 8a 2e bd 66 69 01 bd
       -0.041279078 0.037306003 -0.042612735 -0.031594656
000020 01 4e 73 bc 36 a7 a3 bc 53 1f 49 bd fb 73 5e bd
       -0.014850141 -0.019977193 -0.04910214 -0.054309826
000030 9c c3 7a bc e3 e6 7d bb cd 34 93 bd bc 99 79 bc
       -0.015305426 -0.0038742356 -0.07187805 -0.015234407
000040 48 8d 85 3c e3 9a 67 bb 80 9b 52 bc c5 d2 6b bc
       0.01630272 -0.0035340122 -0.012854457 -0.014393513
000050 3d 7e f9 bb 3c 5d 67 3d 96 77 0a bd e4 5a c1 3c
       -0.0076139257 0.0564854 -0.033805452 0.02360291
000060 73 e6 78 bd 6c 65 f8 bc 91 c5 8b 3d ea b0 49 bd
       -0.06076665 -0.0303218 0.06824792 -0.049240984
000070 89 b9 61 bd 0b e2 20 bd 62 01 46 bd 7a ad dd bb
       -0.05510858 -0.03927807 -0.048341163 -0.006765065
000080 35 be 80 bd 45 a3 86 3d 34 7f c5 bc c6 43 17 bd
       -0.06286279 0.0657411 -0.024108507 -0.03692987
000090 b4 a9 98 3b da f4 8d bd 9c fe 36 3d ef 91 64 3c
       0.004658902 -0.06931467 0.04467641 0.013950809
0000a0 c6 f8 b0 bd 0d c5 2d bd 57 43 e5 3b 34 5e 64 bc
       -0.086412 -0.04242425 0.006996553 -0.013938475
0000b0 31 35 f1 bc 9e a4 02 bc 1b 33 2e 3d 9d 6b 8d bd
       -0.029444309 -0.007973818 0.042529207 -0.06905291
0000c0 20 f8 0a 3d e3 41 0b 3d 3c 5b b3 3c cf 54 25 bc
       0.033928037 0.03399838 0.02189409 -0.010091021
0000d0 37 33 b0 bd 8a 4e 41 3d 16 66 11 3d b7 9c 7a bc
       -0.086035185 0.04719404 0.035497747 -0.015296153
0000e0 42 fb 36 3d 4b 19 19 3d 55 8b 8e bd 41 1f 68 bb
       0.044673212 0.037377637 -0.06960169 -0.003541902
0000f0 d7 77 ba ba c1 3a 52 bd 9f aa 13 3d e2 4d a0 3b
       -0.0014226389 -0.051325563 0.03605139 0.004892097

conv3.weight f4 [128, 64, 3, 3]
000000 da 67 94 bc ae 94 31 3a ad 2f 68 bd 9c 5a a8 bc
       -0.018115927 0.0006774169 -0.056686092 -0.020551018
000010 c2 f0 94 3c a3 a8 97 bd bc 01 6e 3d ea 84 07 3d
       0.018181209 -0.07405212 0.058107123 0.03308574
000020 3f 0a 32 3d 76 b9 bc bb bf cc 0d 3d bc fb 41 3c
       0.043466803 -0.0057594134 0.03461909 0.011839803
000030 22 71 1a 3d da dc 4a 3d 9d 75 1c bd 10 9d 0d bd
       0.037705548 0.049527027 -0.038198102 -0.034573615
000040 a9 a0 00 bd 76 81 9e bc 05 a8 34 3d cd 24 18 3e
       -0.031403217 -0.019348841 0.04410555 0.14857788
000050 d4 0b 77 3c af 20 65 3c 25 9b b4 bd 8a ee 75 bd
       0.015078504 0.013984843 -0.08818654 -0.06004194
000060 35 bf e5 3d 96 c3 8b 3b af 5b 2c 3e 42 30 f2 3c
       0.112181105 0.004265259 0.1683185 0.029564027
000070 bf 5c 34 ba 0c ad ac 3c c8 ed dd 3c ae 30 11 bb
       -0.00068802753 0.021078609 0.027090922 -0.002215426
000080 21 50 63 3c 78 77 73 bd 4f 85 b9 bc c7 47 51 3c
       0.013874085 -0.059440106 -0.022646574 0.012773461
000090 06 66 16 bd 68 23 a1 bc 80 3e 98 bc 0e d7 68 bc
       -0.03671839 -0.019670203 -0.01858449 -0.014211429
0000a0 0b a6 01 bd 97 82 9a bc d7 3b 78 3c c9 36 a8 3d
       -0.03165249 -0.018861098 0.015150986 0.082135744
0000b0 26 5e 85 3c b7 9b bf bc e0 82 18 bd 0c 3f 7d bd
       0.016280245 -0.02338968 -0.037234187 -0.061827704
0000c0 e1 e5 7d bd f3 0f 40 bd 15 d7 8b bd fe 2b df 3b
       -0.061986808 -0.04689021 -0.06828133 0.006810664
0000d0 ae ca 96 bd 55 7e 8f bc 7e 13 ba 3c 51 cc 08 3d
       -0.07362877 -0.017516294 0.022714373 0.033397976
0000e0 9f 8e f8 bc cb 16 9b 3c 39 cf ce 3c 3f c4 36 3d
       -0.030341445 0.018931767 0.025245296 0.04462075
0000f0 ba dc 3a 3d 3d ad a8 bc a2 be 88 bc 30 09 09 bc
       0.045620658 -0.020590419 -0.016692463 -0.008364007
000100 35 b6 0a 3c 22 4a 62 bc f5 06 d6 bc 18 c0 dd bc
       0.008466293 -0.01381162 -0.026126364 -0.027069137
000110 90 4f 7b 3c 6e e8 3e 3d dd b2 07 3d e7 dd d2 3c
       0.015338793 0.04660838 0.03312956 0.025740577
000120 75 3c a7 bd d8 55 09 bd 6f 16 c3 bd f3 f2 d8 bc
       -0.08165828 -0.033529133 -0.09525763 -0.026483035
000130 9e f4 ea bd bb db 4d bc 5a ad e8 bc 7e dd ff bc
       -0.11472438 -0.012564595 -0.028402973 -0.031233545
000140 e2 8c 8d 3c 36 fa 08 3d 50 17 81 3c e1 c2 4c bc
       0.017279092 0.033441745 0.015758187 -0.012497635
000150 6e 84 31 3d 3a 4d 4c 3c 08 df c7 3c d8 67 9b bd
       0.043339185 0.012469584 0.024398342 -0.07588166
000160 6c 60 7d bc 22 fd da ba 77 77 2a bd 30 93 0e 3d
       -0.015464883 -0.001670752 -0.041617837 0.034808338
000170 09 4e a3 3c a3 66 44 bd fe 38 f4 3c 8c dd a3 bc
       0.019934671 -0.047949445 0.029812332 -0.020003103
000180 49 3e 3c bd 2a 1d 17 3c 96 fd 84 bc 60 7d df 3b
       -0.045957837 0.009223262 -0.0162342 0.006820366
000190 12 f1 ea bb 42 92 41 3c 8a 9d b1 bc 78 9c 05 3d
       -0.007169851 0.011814656 -0.021681566 0.032619923
0001a0 b3 ea 39 bd 45 f2 6e 3d 85 79 b1 3a fa 9b 45 bc
       -0.045389842 0.058336515 0.0013540244 -0.0120611135
0001b0 be fb 24 bd d0 8f a8 bc 68 dd cb 3d 7b af 8c 3c
       -0.040279143 -0.020576388 0.09954339 0.01717352
0001c0 fc ce 93 bd 83 3a 1d 3d c5 96 6a bd 19 38 cf 3c
       -0.072172135 0.03838588 -0.05727269 0.025295304
0001d0 2e 0a 99 bd 21 84 32 bc 0f d0 5d bc 83 e0 28 bd
       -0.07472645 -0.01089576 -0.013538375 -0.041229736
0001e0 95 0b 17 3d a0 a0 89 3b 8d 89 e8 3c 40 2a d3 3b
       0.03687628 0.004200056 0.028385902 0.0064442456
0001f0 2a 2c fc bc 91 3b 08 bc b0 fd 14 3c fe 38 47 bd
       -0.030782778 -0.008314983 0.009093687 -0.048638336
000200 2a 50 d8 3c 98 27 48 3d 5b b2 cf bc a9 36 05 be
       0.026405413 0.048865885 -0.025353601 -0.13009132
000210 58 b0 2b bd a0 db b8 3c b9 98 b8 bd 47 31 17 bd
       -0.04191622 0.022565663 -0.090135045 -0.03691223
000220 92 e0 fd 39 38 c9 04 bd 2e 84 b7 bc aa e9 57 bd
       0.00048423238 -0.03241846 -0.022401895 -0.052713074
000230 ae 3a 11 bd bd 9f 1c 3d a8 65 18 bd 90 57 50 3c
       -0.035456352 0.038238276 -0.037206322 0.012716189
000240 d4 20 fe 3c 6a b4 9a 3c 11 60 c3 ba 80 f2 87 bb
       0.031021513 0.018884856 -0.0014905949 -0.0041487813
000250 51 78 82 bc 58 52 28 3d 79 5e 39 bd f6 15 9d 3c
       -0.015926512 0.041094154 -0.04525611 0.01917551
000260 a2 ea 01 3d 74 30 45 b9 03 3c a5 3c a4 cc 09 bc
       0.031717904 -0.00018805434 0.020170217 -0.0084106065
000270 68 16 bf 3c a9 af ae bc 94 8e 2e 3d f9 ab 28 bd
       0.023326114 -0.021323996 0.04261644 -0.04117963
000280 02 d2 8d bc a6 9b ce 3c 9e 9a 05 3d 1b 86 4a 3c
       -0.017312054 0.025220703 0.032618158 0.012361075
000290 85 1c 9f bc 1e ea d3 3b 28 2d 0b 3d 9a 44 18 3d
       -0.019422779 0.006467118 0.03397861 0.0371748
0002a0 62 99 89 bd e9 ea 7d 3a 0c 01 08 bd eb f5 88 3d
       -0.067187086 0.00096861884 -0.033204123 0.0668753
0002b0 c9 e1 43 bc 66 16 05 bd ea 75 79 3d c0 f7 30 bd
       -0.011955687 -0.032492064 0.060903467 -0.043205023
0002c0 60 f3 9f 3d 74 72 6d 3d cd ba 5e 3d 22 97 d3 3d
       0.07810092 0.05797048 0.054377366 0.10331561
0002d0 20 f7 8a bd 86 13 b1 3a 94 04 35 bd 1d 2d 2a bd
       -0.067854166 0.0013509847 -0.04419382 -0.04154693
0002e0 b0 e4 20 b8 76 a5 b0 bc c9 37 0e bc 30 a8 46 3d
       -3.8359954e-05 -0.021563273 -0.008680292 0.04850024
0002f0 9b 70 c2 3c 3e a5 6f bd 22 73 4a bd 45 f6 e5 ba
       0.023735335 -0.058507197 -0.049426205 -0.0017544708
000300 c7 93 c0 bc 8e ca 67 bd 60 38 d0 3c a6 1e 22 3a
       -0.023507966 -0.056589656 0.025417507 0.00061843765
000310 83 8e f0 3b d9 e5 d6 3a f9 16 51 3d 48 2f 2f 3d
       0.0073412075 0.0016395404 0.0510473 0.0427697
000320 64 8c 5b 3d 69 6b 62 3d 6a fb d7 bc 59 98 d9 bc
       0.053600684 0.055278216 -0.026365 -0.026561903
000330 42 81 56 3d be f3 7a bd cc ff 95 bd ee a4 7b 3c
       0.052369364 -0.061267607 -0.0732418 0.0153591465
000340 83 b8 3b 3a 6a 01 ba 3c 01 63 07 3c cb 1c 60 bd
       0.0007160978 0.022705752 0.00826335 -0.05471496
000350 8b ce 76 bc 87 ff 21 bc 47 d0 d4 3c 9b f1 f7 bb
       -0.015063892 -0.009887583 0.02597822 -0.0075666434
000360 b6 88 40 3c 22 d4 07 3d ba 6d 7c 3b 39 2b bb 3a
       0.011751344 0.03316129 0.003851755 0.0014279849
000370 74 78 19 3b d0 d1 61 3c 42 00 1d bd 71 cf aa 3c
       0.0023417743 0.013782933 -0.038330324 0.020850869
000380 da ab 88 3d 60 07 85 3d ed 0e 5c 3d 95 cd db bc
       0.06673403 0.06495547 0.05372517 -0.026831428
000390 c0 35 cd bb bf 95 04 bd 3f ac 91 bd 77 a8 ac bd
       -0.006262511 -0.03236937 -0.071129315 -0.084305696
0003a0 86 9b b9 bd 4a a8 a3 3d 00 22 2b bd fc 92 8e bc
       -0.09062867 0.07991083 -0.04178047 -0.017404072
0003b0 34 c7 80 bc 45 5f 4e 3d 5d c6 83 bd d5 b6 c3 bc
       -0.015719987 0.050383825 -0.06434319 -0.023890892
0003c0 95 21 35 bd 67 27 1d bd 95 8d 85 bd aa 9c e9 3c
       -0.04422148 -0.038367655 -0.06521145 0.028517086
0003d0 ab 42 9b 3d b3 7a cb bc 0b 0f 60 bd bd 19 5a bd
       0.07581075 -0.024838781 -0.054701846 -0.053247202
0003e0 fe 75 9a bd a6 ab f6 3c 28 a7 8e 3b 9f b7 3b bb
       -0.075420365 0.030111145 0.0043534227 -0.0028643382
0003f0 db 20 74 bc 25 6c 8d 3d d9 5f 4a bd 92 ad 6a 3d
       -0.0149004115 0.069053926 -0.049407814 0.057294436

conv3.bias f4 [128]
000000 9d e5 78 bd 25 99 d6 3a 75 86 c3 bc 7a 8b 0c 3d
       -0.06076585 0.0016372545 -0.023867825 0.034312703
000010 56 9d 1f 3c 44 91 81 bc 87 c8 41 bd 5a 4e e0 bc
       0.009742102 -0.015816338 -0.04731038 -0.027381111
000020 a3 fb 02 3d ad 21 80 3d 05 ad ac bb 6d 9c 32 3d
       0.03197826 0.06256423 -0.005269649 0.04360621
000030 d5 d3 0d bd 13 5b f5 3c 20 cf e4 3b 95 a1 31 bd
       -0.034625847 0.029950654 0.006982699 -0.043366987
000040 97 f3 bb 3c 9a 2a 08 bc 19 ba 30 3b 36 fc 38 3d
       0.022943301 -0.008310938 0.0026966392 0.045162402
000050 78 ab f3 bc b9 b6 07 bd e3 de c4 bc b7 79 5f 3c
       -0.029744849 -0.033133242 -0.024032062 0.013639859
000060 ef 8a 98 bb e8 45 49 3c d6 e4 03 bd 2a 3f d7 3a
       -0.004655234 0.012284733 -0.032200657 0.0016422023
000070 a2 6d c7 3a 8b 2e 4f bb 96 9b b9 bb 1a 10 9c bc
       0.0015215168 -0.0031613435 -0.0056642992 -0.019050647
000080 42 8b 00 3d a9 5c c2 bc cb 17 65 3d 54 fa 10 3d
       0.031382807 -0.023725824 0.055930894 0.03539498
000090 b9 79 49 3d f3 36 5b bd 27 17 75 3d a1 d1 c1 3c
       0.04918835 -0.0535192 0.059836533 0.02365953
0000a0 e3 4d 36 bb 1b 01 8a bb 48 91 c2 bb b2 9f c0 3c
       -0.002781742 -0.0042115576 -0.005937729 0.023513649
0000b0 58 85 91 3d 90 6f 68 bd 95 78 86 3c 40 ca 81 3d
       0.071055114 -0.05674702 0.01641492 0.06337404
0000c0 0c 02 91 3b fe 98 f2 bc 08 3b 27 3c d7 1f 67 bd
       0.004425293 -0.029613968 0.010206945 -0.05642685
0000d0 91 5d 98 3b ef 99 e8 3c 39 a9 42 3a 6b 97 3e bd
       0.004649826 0.028393714 0.0007425729 -0.046531122
0000e0 28 f1 65 bc 2d ef 90 bd 31 8b a1 3b d0 a0 36 3d
       -0.014034547 -0.07076869 0.004929923 0.044586957
0000f0 e1 98 03 bd a4 c5 72 3c 69 8c 59 bd 00 66 d1 3b
       -0.03212822 0.014817629 -0.05311242 0.006390333
000100 d5 28 af 3c 11 88 22 3c b4 43 e3 3c 71 b7 2f 3b
       0.021381775 0.009920136 0.027742244 0.002681222
000110 ca 31 51 3d bb 3b 25 bd cf 1c 83 3d f1 b8 e1 3c
       0.051072873 -0.040340167 0.06401979 0.027554007
000120 fa 21 28 3d f6 e5 17 3d ff fd a7 ba f7 79 6f 3c
       0.041048028 0.037084542 -0.0012816786 0.014616481
000130 76 58 0d bd fc ed 16 3d fc c2 44 3c cd b1 65 3c
       -0.03450819 0.036848053 0.0120093785 0.014019442
000140 1c 9e de bc 42 cc d5 3c 92 21 29 bd 5a bb 0d 3d
       -0.027175002 0.026098374 -0.04129178 0.0346025
000150 e2 91 fb 3b 7e a0 55 3d 08 87 b6 bb 24 73 81 bb
       0.0076773027 0.05215501 -0.005570296 -0.0039504934
000160 92 d7 37 3d 11 9f 70 3c 93 9a 7f 3b 96 41 63 bc
       0.04488332 0.014686362 0.0039002046 -0.013870617
000170 72 e9 85 3d 54 2a d2 3c 1c af 2a bc 62 11 20 bd
       0.06538667 0.02565495 -0.010417726 -0.039079078
000180 13 69 b6 3c da ab 02 3d e7 24 20 bd 45 d4 af 3b
       0.0222669 0.03190217 -0.039097693 0.0053658807
000190 2c 19 b4 bc aa a5 da bc fd bb a7 3b 0e 8f ef bc
       -0.02198466 -0.026690323 0.0051188455 -0.029243018
0001a0 e9 95 f1 bc f3 a1 a2 bc e5 ff 36 3d d3 eb 8d bc
       -0.029490428 -0.019852614 0.044677634 -0.017324364
0001b0 a6 4a 99 bc 94 92 ed 3c a6 82 1b bd ef e7 0d 3d
       -0.018712353 0.029000558 -0.037966393 0.034645017
0001c0 93 1b a8 bc 36 80 3f 3d 33 6a a6 3b 44 77 18 3d
       -0.02052096 0.04675313 0.005078578 0.037223116
0001d0 7a 5a 09 3d 9f 8c 5f 3d f4 68 23 bd 58 e1 e4 bc
       0.03353355 0.054577466 -0.039895013 -0.027939484
0001e0 03 e0 04 bd f3 9d 92 3a e2 68 5b 3c e9 32 2b bc
       -0.032440197 0.0011185989 0.013391705 -0.01044915
0001f0 b0 0d 33 3c ce ae 58 bc ad 9d a8 ba 59 1a 9a bc
       0.010928556 -0.01322527 -0.0012864374 -0.018811392

act_conv1.weight f4 [4, 128, 1, 1]
000000 68 be 55 bd ee cd 55 3c ee fb 86 3d f7 9f 4e 3d
       -0.05218354 0.013049586 0.065910205 0.050445523
000010 c6 3e 37 3d 46 f6 07 be ac 27 3d bc b0 7f b0 3d
       0.0447376 -0.1327754 -0.011545103 0.086181045
000020 fa ac 87 3d 6a 07 34 3d cc 10 02 bd d9 96 ec 3c
       0.066247895 0.043952383 -0.0317543 0.028880524
000030 8a 13 b2 3d ff 15 59 3d 48 2f 9a 3d 43 ba 3b bb
       0.08695133 0.052999493 0.075285494 -0.0028644956
000040 b0 47 c4 3c cf 88 bd 3b 43 d7 25 bd 9c 44 56 3d
       0.023959965 0.005784131 -0.040488493 0.052311525
000050 f4 4c bf 3d d1 bb ec b8 54 cf 41 3d 72 62 87 3d
       0.093408495 -0.000112883405 0.047316864 0.06610574
000060 69 b1 2b 3b 5b 66 2e bd 1e 25 6a 3d b2 17 c1 3d
       0.0026198274 -0.042578083 0.057164304 0.09428348
000070 d3 fc 21 3d 27 ae a2 3d af d2 91 3d d7 ac c4 3d
       0.039547753 0.07943373 0.07120263 0.09603279
000080 4f ae ad bd bd 47 36 3d 64 ae e8 bd 32 b3 79 3d
       -0.08480512 0.04450201 -0.11361387 0.06096191
000090 eb 34 1d bd db ce 99 bd f5 ba 5a 3b 55 76 80 bd
       -0.038380545 -0.07510158 0.0033375595 -0.0627257
0000a0 ec f7 d4 bd 98 3e 44 3d 1f a0 ec 3c 99 2c 66 3d
       -0.1039885 0.047911257 0.028884945 0.056194875
0000b0 dd 39 04 be de d5 c8 bc 31 56 3e 3c 90 5a cb 3c
       -0.12912698 -0.024516042 0.011617229 0.024823457
0000c0 e3 5c f5 3d 6b 23 63 3d 86 2a 64 3c 1d ad 86 bb
       0.11980607 0.0554537 0.013926154 -0.004109992
0000d0 b5 84 c1 3d 3c c9 58 3d 2b 70 84 3d 9d d8 68 3d
       0.0944914 0.052926287 0.06466707 0.056847204
0000e0 1f 51 79 bc 27 b2 d3 3d 91 ec cb bc 7b a7 0f bd
       -0.015217095 0.10336714 -0.024893077 -0.03507183
0000f0 9c eb 46 3d 51 9c 0a bd 14 87 8c bd b1 03 3e 3d
       0.04856454 -0.03384048 -0.068617016 0.04639024
000100 07 81 e5 3d bf 2f 88 bd 61 51 9a bd 81 f1 04 3b
       0.11206251 -0.06649732 -0.07535053 0.002028555
000110 6f 1e f9 bc ad cb ed ba 8a d9 a4 bd 56 4e ea 3d
       -0.03041002 -0.0018142365 -0.08049305 0.11440723
000120 94 2e 17 bd 3b e9 83 bc b0 86 96 bb bd a8 37 3c
       -0.036909655 -0.016102424 -0.0045936927 0.011209664
000130 87 80 c6 bc 03 48 00 3c 0d 62 e6 bd 39 33 65 bd
       -0.024231208 0.007829669 -0.112491705 -0.055957053
000140 56 ec 5e bd 09 58 93 3d 9b fc 00 3d 5a 87 9d bd
       -0.054424606 0.07194526 0.031490903 -0.07691832
000150 47 99 96 bd b6 23 85 bc 82 ac 6e bb fb 88 bf 3d
       -0.07353454 -0.01625238 -0.003641874 0.09352299
000160 a3 ef 6f 3d fc 57 8f 3d c1 da f3 bd d5 36 37 bc
       0.058578145 0.069992036 -0.11906958 -0.011182507
000170 42 17 a8 3c 6b ff 01 3e f2 40 aa bd 68 66 f5 3d
       0.020518903 0.1269509 -0.083131686 0.11982423
000180 6f 5f d9 38 76 82 a4 3d c8 65 e4 3b 12 db a7 3c
       0.00010365142 0.08032696 0.006970141 0.020490203
000190 67 fe 74 3d 37 ab 8a 3d 1b 96 25 be 84 7f 1d 3d
       0.05981293 0.06770938 -0.16170542 0.038451687
0001a0 d1 c5 4b bc 34 df 06 be d7 3f 22 be a1 b2 f6 bb
       -0.0124373 -0.13171083 -0.15844665 -0.0075286184
0001b0 30 53 b9 bc ff 4d 0e 3e 28 54 cd 3c 7a 49 c3 bc
       -0.022622675 0.1389694 0.025064543 -0.023838747
0001c0 11 be af 3d 99 76 b1 bd 14 97 4f bc 97 a9 0d 3e
       0.08581174 -0.08665199 -0.012670297 0.13834225
0001d0 b2 64 3e 3d 98 d2 a3 3d 4f e0 a3 3d cc 71 9c bd
       0.04648275 0.07999152 0.08001768 -0.076388925
0001e0 84 74 dc 3b 8e dd 35 bd f8 68 c6 bd eb c7 84 bd
       0.006727757 -0.044400744 -0.0968799 -0.06483444
0001f0 0a 93 5b 3a 9f 83 04 bd 4e 1c db 3d d7 71 2d bd
       0.00083760975 -0.032352086 0.10698758 -0.042344894
000200 b4 e2 75 3d 54 62 0a 3d 44 60 76 bd 20 01 84 bd
       0.060030654 0.03378518 -0.0601504 -0.06445527
000210 ab 0c 63 bd 99 37 71 bd d7 39 0e 3e ba 50 aa bd
       -0.055432003 -0.058890913 0.13889252 -0.083161786
000220 ef 52 0b be ff 4c 53 bd f6 d9 89 3d 41 29 f4 3d
       -0.13605855 -0.0515871 0.06731026 0.11921931
000230 a3 39 cd 3b 8e 05 b1 3d a4 ce e0 3d ac ec 29 3c
       0.0062629743 0.086436376 0.109769136 0.010371368
000240 31 22 7c 3c 49 8f a3 3d fd 62 ac bc b8 dc 84 bd
       0.015389011 0.07986314 -0.021043295 -0.06487411
000250 5d d4 76 bd 04 cf 33 35 8b 2e 06 3e f3 8d 04 3e
       -0.06026112 6.6983944e-07 0.13103692 0.12944774
000260 4a b1 86 3d 69 05 ea 3d b1 e0 9c 3c e6 fc aa bd
       0.06576784 0.11426813 0.01915011 -0.08349018
000270 13 d2 c8 bc 2d 30 00 be eb cd 4f bb 0a 0d a7 3d
       -0.024514234 -0.12518378 -0.003170843 0.08156784
000280 a4 6e 17 bd 8b c8 a6 bd 86 91 05 bd 46 40 3c 3d
       -0.03697075 -0.08143719 -0.032609485 0.045959733
000290 3c d7 a0 3d 1b 2e c7 bd 55 c8 d3 3d 95 f8 5b 3d
       0.07853553 -0.09725591 0.10340945 0.053703863
0002a0 65 92 b1 3d b0 b9 19 3e 4f 86 19 3c d4 5a 86 3b
       0.08670501 0.1501224 0.009370401 0.004100183
0002b0 c7 51 f4 3d 2c 05 a7 3d a1 b0 d6 3d f6 90 9a bd
       0.1192966 0.08155283 0.10482908 -0.0754718
0002c0 51 6d e8 3d 61 df 4d 3d dd 24 59 3d 2a 34 26 3c
       0.113489754 0.05026186 0.05301367 0.010144273
0002d0 10 5e 63 bd e0 d6 d8 bd 6f 1c 9a 3d aa 87 9c 3d
       -0.055509627 -0.10587859 0.075249545 0.07643063
0002e0 93 8f 85 bc 17 62 42 3e 55 b3 c4 3d 3c 0f d1 bd
       -0.016303813 0.18982731 0.09604517 -0.10207984
0002f0 ed 4b 98 3b 80 41 e2 3d 44 ad 6c 3d db c2 54 3d
       0.004647723 0.110476494 0.057782426 0.05194364
000300 44 bf b1 bd 90 b2 0b 3d d9 f2 ad bd d8 c4 9b bd
       -0.08679059 0.034105837 -0.08493585 -0.07605904
000310 df d7 e5 3c 81 1a c1 38 d9 a7 94 bd c0 85 9e 3b
       0.028057037 9.207894e-05 -0.07258577 0.0048377216
000320 31 d1 f7 3c 46 50 8c 3c c1 24 da 3d 8d 8e d8 3d
       0.030251117 0.017128121 0.106515415 0.105740644
000330 aa 3a ae 3d 17 c4 cc bc 62 c2 cb bd f8 a2 a2 bd
       0.08507283 -0.024995847 -0.09949185 -0.0794124
000340 f7 16 93 3d 4c 51 da bd da 38 51 3d e9 44 38 3d
       0.071821146 -0.106600374 0.05107961 0.044987593
000350 fd a1 02 3d 98 8f 0a 3e 6f 43 c5 3c e2 50 30 3c
       0.031892765 0.13531339 0.024080006 0.010761471
000360 12 61 83 bd 81 5e 8f 3d da 41 64 bd b0 54 13 3d
       -0.06414999 0.07000447 -0.055726863 0.035969436
000370 9c 6e c0 bd 10 7e ad bd 36 e8 e5 3d 81 d1 bf 3c
       -0.09396097 -0.0847131 0.11225931 0.023415329
000380 a8 17 25 3d 4d 13 1d 3e 73 ca 32 3d 1b 14 d3 3d
       0.040305763 0.15339394 0.043650102 0.10306569
000390 1e 58 de bd c0 0b 54 bd c3 18 14 3e bf 08 a1 3d
       -0.10856651 -0.05176902 0.14462571 0.07862996
0003a0 79 1a b8 3d 28 4d 48 3e f7 37 c1 3d bc c5 55 3d
       0.08989424 0.19560683 0.094345026 0.052190527
0003b0 a5 77 dc bd a1 09 67 3e f7 74 b7 3c e9 8f 35 bd
       -0.10765008 0.22562267 0.02239464 -0.044326697
0003c0 c3 b7 67 3d 50 05 0e 3d 8c f9 cd 3d d1 4b 9b bc
       0.056571733 0.034673035 0.10057363 -0.01895705
0003d0 90 0d ac bd de 43 8f bd bc 5d 09 bd 26 84 98 bd
       -0.08401024 -0.069953665 -0.033536658 -0.0744708
0003e0 3d 15 ab bc a0 58 a3 3c 8a 59 73 3d 0b 78 88 bd
       -0.02088415 0.01993972 0.059411563 -0.066635214
0003f0 31 7c e7 bd 92 bb 53 bc 72 e8 13 be ef b6 19 3e
       -0.113029845 -0.012923138 -0.1444414 0.1501119

act_conv1.bias f4 [4]
000000 ab 56 a0 3c 2d 5c 2f 3d a1 ef d0 3d c3 01 f1 bc
       0.019572577 0.042812515 0.102019556 -0.029419785

act_fc1.weight f4 [64, 256]
000000 b2 36 de 3d 66 13 61 3d c9 66 20 bd ce ca a0 3d
       0.10850276 0.05495014 -0.039160524 0.07851182
000010 85 8b f1 3c 51 31 89 3d 67 b7 4a 3c 4d d9 77 3d
       0.029485473 0.066988595 0.012372828 0.06050997
000020 63 32 3b 3e 49 da bf 3d 7c af 80 3d 20 ae 53 3d
       0.1828094 0.093678065 0.06283471 0.05167973
000030 9d 29 9d 3d 7a f6 2c 3d d8 27 8c 3c 85 3f 7d 3d
       0.07673953 0.042227246 0.017108843 0.061828155
000040 b5 19 aa 3d cb 0f 8e 3c 6f 00 d1 bc 63 6b ba bc
       0.083056845 0.017341515 -0.025512902 -0.022756284
000050 0a 1c 17 3d 52 31 14 3d 39 f1 27 3c 50 2a e0 bc
       0.036891975 0.036179848 0.010250383 -0.027363926
000060 d4 0e 54 3d 46 e6 5d bc a5 ea fb bb 9e 57 2a bd
       0.051771954 -0.013543671 -0.007687884 -0.041587465
000070 d4 3f 12 3d a2 ba 89 3d 79 cf 11 3d 40 6b aa 3c
       0.035705402 0.067250505 0.035598252 0.020803094
000080 f3 fe 4e 3c 4b 87 d9 bb b6 af c8 bd e8 a5 ca bd
       0.012634027 -0.0066384426 -0.09799139 -0.09894925
000090 e9 21 06 3c ea f9 22 3d 85 cd b7 3d 56 ec 73 bd
       0.008186796 0.039789118 0.089747466 -0.05955156
0000a0 9a 26 40 bd af fe 40 bd 76 06 96 bd 69 89 94 bd
       -0.046911813 -0.047117885 -0.07325451 -0.072527714
0000b0 51 7f f7 3c 97 1c 35 3d 56 68 0e bd ed e1 09 3d
       0.030212076 0.04421672 -0.03476747 0.033662725
0000c0 4b bf 51 be 1e 27 ad 3d a5 bc 88 bd 4c fb 28 bd
       -0.20483129 0.08454727 -0.06676606 -0.04125528
0000d0 c2 a2 99 3c 4e d7 11 3e 74 05 b4 3b e7 0a a8 3d
       0.018754367 0.14242288 0.005493814 0.082052045
0000e0 0b 45 fd bc 6b 8b 93 bd c6 f0 58 3d ff 9f c5 3b
       -0.030916711 -0.07204326 0.052963994 0.006031036
0000f0 23 c7 ed 3b af 0e d4 3d d6 43 99 3d 82 23 c3 3d
       0.007256405 0.10354363 0.07483642 0.09528257
000100 f2 b8 b8 bd ad 9b 88 3d f5 8d f8 bc 87 8d 05 3d
       -0.090196505 0.06670318 -0.030341128 0.032605674
000110 74 16 43 3d de ad 80 3c 9f 65 c6 bb 1a 56 47 3d
       0.047628835 0.015707906 -0.0060545946 0.048666097
000120 17 12 d2 3b fd 52 9d 3d 93 c4 95 3c 26 38 95 3c
       0.006410848 0.076818444 0.01828221 0.01821525
000130 f4 dc d2 bd 29 ce 88 bd ac 02 b2 3d 04 4f 8a 3d
       -0.1029605 -0.06679947 0.08691916 0.06753352
000140 ad 20 a6 3d 69 38 4b 3d ab 1e 2f bc fc 49 90 3d
       0.08111701 0.049614344 -0.010688464 0.070453614
000150 ff ab 39 3d 42 26 1a 3c a2 5e 1b bd 12 3f fc 3d
       0.045330044 0.009408535 -0.037932046 0.12316717
000160 ca 44 88 3d 24 90 ac 3c 29 60 07 3d 16 eb 2c 3c
       0.066537455 0.021064825 0.03305069 0.010554096
000170 f3 03 24 3d 79 7b df bb 77 95 ed 3c 37 eb 10 3d
       0.04004283 -0.006820139 0.029001934 0.03538057
000180 44 b8 9f 3d bc e8 98 bd d0 34 b5 bd ab f8 b8 bc
       0.07798818 -0.074662656 -0.08847964 -0.022579512
000190 13 6e 5d 3b a7 11 e8 3c 63 b4 96 3b 84 24 d2 bc
       0.0033787533 0.02832873 0.0045991405 -0.025652178
0001a0 44 da 03 bc 2c 1e 2d 3d 66 ee 00 bd a6 a6 e8 bd
       -0.008047644 0.042265102 -0.031477354 -0.11359911
0001b0 da ea 4f bd f2 7c 4d bd a7 f7 10 3d 93 7e e9 3c
       -0.05076108 -0.050167985 0.03539243 0.028502738
0001c0 31 4d 65 3e 1d bf b0 3d b0 bc e0 3d 1e eb 7f 3d
       0.22392727 0.08630202 0.10973489 0.062480085
0001d0 c0 af a8 3c 97 82 f2 3c ff b0 4b 3d 53 d9 08 bd
       0.020591617 0.029603286 0.049729344 -0.03341038
0001e0 82 49 b9 bd 40 46 4b be f6 2a 2c 3d a3 6c af bc
       -0.09047224 -0.19851017 0.04203316 -0.021414107
0001f0 8e 35 26 bd d3 33 05 3d 5d e3 c9 3d bc 6c c6 3c
       -0.040578417 0.032520127 0.09857819 0.02422177
000200 a1 87 57 bb 3e e6 1f 3d 6f a8 a9 3c d2 a5 1e 3c
       -0.0032887238 0.039037935 0.020710198 0.009683089
000210 7e 6c 82 bd 99 47 af 3c 7d 1b 50 3c b7 12 62 3d
       -0.063683495 0.021396445 0.012701866 0.05519363
000220 e4 64 83 bd 69 51 06 3d fa fc 42 bd 1e 1b 52 bd
       -0.06415728 0.032792483 -0.04760454 -0.051295392
000230 b7 e0 02 3d c0 7a d0 bc 76 c4 28 3b b1 a8 45 3d
       0.031952586 -0.025449157 0.0025751865 0.04825658
000240 58 36 7b ba 56 c3 57 bd 12 18 c3 bd 42 24 30 3c
       -0.0009582988 -0.05267652 -0.095260754 0.010750832
000250 1c 3b 87 bb 2a 0e 1a 3d c9 c6 6b 3b fd 80 4a bd
       -0.0041269194 0.037611164 0.003597664 -0.04943942
000260 0a 76 61 bd 49 51 62 bd 6c d3 a6 3c b3 7e 5e bc
       -0.05504421 -0.0552533 0.020364486 -0.013580012
000270 66 8f bd bd 39 f5 8b bc 63 be 36 3d 69 ea 84 bc
       -0.09255867 -0.017084705 0.04461516 -0.016225057
000280 69 68 c7 bc a4 31 a4 bd 21 57 95 bd e7 ce 2f 3d
       -0.024341779 -0.08017281 -0.07292009 0.042921927
000290 e7 dd 58 bd ae fe 38 bd 65 d6 1c 3c 0d 5d f3 bd
       -0.052945998 -0.045164756 0.0095726 -0.118829824
0002a0 3d a3 74 3d 22 aa c9 bd 0b b7 66 bd c7 59 72 bc
       0.05972599 -0.098469034 -0.056326907 -0.014791912
0002b0 af c1 98 3d d1 e4 58 3d d0 bc 63 bd d2 de 79 bd
       0.07458817 0.05295259 -0.055599988 -0.061003514
0002c0 06 83 02 3e cd b8 b3 bd 4b 83 8c 3d e2 3f 28 3d
       0.12745294 -0.08775482 0.0686098 0.04107655
0002d0 48 fd 28 3d fd 41 4f bd 9f 4e f1 bc 98 fb 6b bc
       0.041257173 -0.05060004 -0.029456435 -0.014403246
0002e0 54 fd 8f be 8b f4 6a bd 75 76 81 3d e6 31 83 bd
       -0.28122962 -0.05736212 0.06321422 -0.06406002
0002f0 ed 1f 0c 3d f8 93 1f 3d 34 83 a6 bc 3d 14 68 bd
       0.034210134 0.038959473 -0.020326234 -0.056659926
000300 e6 45 fb 3c 11 41 4e bd 11 30 32 be a1 ce 20 bd
       0.030672979 -0.05035502 -0.17401148 -0.039259557
000310 79 59 c8 bc 11 2f 8e bd 5a 40 45 3d 97 e2 e2 bd
       -0.024456726 -0.06942571 0.048157074 -0.11078375
000320 10 25 de bd ed 9c 9e 3d 1f 25 d8 bd 33 88 8c bd
       -0.10846913 0.07744775 -0.10553955 -0.068619154
000330 3d 38 9d bc 45 28 04 bd a0 9a 84 3d eb 0d be bc
       -0.019191856 -0.032264967 0.06474805 -0.023199996
000340 92 6f 05 3d 73 41 60 bc 5f 22 a1 3c 4f fa 9f 3b
       0.032577105 -0.013687479 0.01966971 0.004882134
000350 e6 d6 7f bd e0 4c 1a 3e 8c f8 d2 3d 65 dc 87 bd
       -0.062460802 0.15068388 0.10301313 -0.06633834
000360 1d 9f 38 3e f8 9d 1d 3d d1 d2 1c bd f3 57 07 bd
       0.18029447 0.03848073 -0.038286988 -0.03304286
000370 36 50 cf bc c2 e3 7c bc 12 49 93 3d a2 b4 1f bd
       -0.025306802 -0.015435161 0.071916714 -0.038990624
000380 fa ad e8 3b e1 32 7d bd 68 df 95 3c c9 cd 46 be
       0.0071008177 -0.0618161 0.018295005 -0.19414438
000390 ac f0 ba bd 4b 5d ea bc f2 c7 d0 bc f3 07 0e 3c
       -0.09127936 -0.028608939 -0.025485966 0.008668887
0003a0 67 7f 16 be 08 1f 8b bd 21 7f 08 be 16 57 05 bd
       -0.14697038 -0.06793028 -0.13329746 -0.032553755
0003b0 0e c4 be bd dd 3b 63 bc 7c 21 92 bd 27 5c d6 bc
       -0.09314738 -0.013869253 -0.07135293 -0.026166989
0003c0 db 6a 20 be 05 27 a5 3d 62 e2 d0 bd 67 94 52 3d
       -0.15665762 0.08064083 -0.10199429 0.05141106
0003d0 a8 90 8a bd 40 a9 e9 bd 95 f0 57 bd d7 94 a5 bd
       -0.06765872 -0.11409235 -0.05271967 -0.080850296
0003e0 51 8e 10 bd 2f 35 33 be 0e 62 86 bd 55 1b 75 bd
       -0.035291974 -0.17500757 -0.06561671 -0.05984052
0003f0 89 0c b8 bb d5 a9 7c 3c 15 56 af 3c d2 ea 23 3e
       -0.0056167287 0.0154213505 0.021403352 0.16007546

act_fc1.bias f4 [64]
000000 d6 69 eb bd 2f 43 b9 bd 42 73 bf bd 32 db 84 3d
       -0.11494796 -0.090460174 -0.093481556 0.06487121
000010 24 26 62 3d 6e b2 0b be 10 02 50 bd 22 74 cf bd
       0.055212155 -0.13642284 -0.050783217 -0.101295725
000020 29 7e 6d bd a6 a2 3d 3c bd 11 2d be a4 4f 73 bd
       -0.057981644 0.011574423 -0.16901298 -0.059402123
000030 81 03 a5 bd 06 4d c8 bd 84 33 a6 3d d0 b9 64 bd
       -0.08057309 -0.09780316 0.081152946 -0.055841267
000040 54 53 18 be 3b a7 96 bd 38 9e 64 3d de ed b8 3d
       -0.14875537 -0.073561154 0.05581495 0.090297446
000050 a3 97 28 3e c8 33 7e 3d f6 44 24 be 0b 53 d5 bd
       0.16464095 0.0620611 -0.16041932 -0.1041623
000060 ef 49 12 3c 9c da 70 bd 13 25 60 3e 88 6e b9 3d
       0.00892876 -0.058802232 0.21889143 0.09054285
000070 d3 b8 cf 3d 36 2a 38 3e 61 35 2e bc 04 0a 77 3d
       0.10142674 0.17984852 -0.010632844 0.060312286
000080 7f ca 99 3d c0 51 49 bd 94 85 08 3e 7d 19 f1 3d
       0.07509326 -0.04915023 0.13332206 0.1177244
000090 2a 1e e5 3d e5 89 07 3e f5 33 bd bd c7 14 97 3d
       0.11187394 0.13236196 -0.09238426 0.0737701
0000a0 b6 59 c3 bd 90 62 b4 bd c7 86 3c 3c 3e b4 d7 3d
       -0.095385954 -0.08807862 0.011506743 0.10532425
0000b0 07 e1 41 3e 02 62 7e bb a8 96 39 be 6f fe 04 be
       0.18933497 -0.0038815741 -0.18123877 -0.12987684
0000c0 ec 0b aa bd b2 7f 8a 3d 34 8a dc bd d9 9b 94 bd
       -0.08303055 0.06762637 -0.10768548 -0.07256288
0000d0 e4 9f 60 bd 83 56 15 be c1 43 20 3d f1 3d 17 bd
       -0.054839984 -0.14583783 0.039127115 -0.036924306
0000e0 6a 76 a9 bd a8 d4 7a bd 0a b0 b3 bd 35 fb 6a 3d
       -0.08274539 -0.06123796 -0.08773811 0.057368476
0000f0 88 cf ce 3d 9b 5e fd bd 09 ff 3a bd 32 35 98 bd
       0.10098177 -0.1237156 -0.045653377 -0.07432021
